# YOLOv12-Turbo dengan BiFPN Feature Fusion 🚀
# Enhanced neck dengan BiFPN untuk learnable weighted bidirectional fusion
# Best for: Adaptive feature selection dengan learnable weights
# For Usage examples see https://docs.ultralytics.com/tasks/detect

# Parameters
nc: 1 # number of classes
scales: # model compound scaling constants
  # [depth, width, max_channels]
  n: [0.50, 0.25, 1024]
  s: [0.50, 0.50, 1024]
  m: [0.50, 1.00, 512]
  l: [1.00, 1.00, 512]
  x: [1.00, 1.50, 512]

# YOLO12-turbo backbone
backbone:
  # [from, repeats, module, args]
  - [-1, 1, Conv,  [64, 3, 2]] # 0-P1/2
  - [-1, 1, Conv,  [128, 3, 2, 1, 2]] # 1-P2/4
  - [-1, 2, C3k2,  [256, False, 0.25]]
  - [-1, 1, Conv,  [256, 3, 2, 1, 4]] # 3-P3/8
  - [-1, 2, C3k2Attn,  [512, False, 0.25]]
  - [-1, 1, Conv,  [512, 3, 2]] # 5-P4/16
  - [-1, 2, A2C2f,  [512, True, 1]]
  - [-1, 1, Conv,  [1024, 3, 2]] # 7-P5/32
  - [-1, 2, A2C2f,  [1024, False, 1]]

# YOLO12-turbo head dengan BiFPN fusion
# Strategy: Standard neck processing, lalu BiFPN untuk final fusion
head:
  # Standard neck processing (top-down + bottom-up)
  - [-1, 1, nn.Upsample, [None, 2, "nearest"]]
  - [[-1, 6], 1, Concat, [1]] # cat backbone P4
  - [-1, 2, A2C2f, [512, False, -1]] # 11 P4
  
  - [-1, 1, nn.Upsample, [None, 2, "nearest"]]
  - [[-1, 4], 1, Concat, [1]] # cat backbone P3
  - [-1, 2, A2C2f, [256, False, -1]] # 14 P3
  
  - [-1, 1, Conv, [256, 3, 2]]
  - [[-1, 11], 1, Concat, [1]] # cat head P4
  - [-1, 2, A2C2f, [512, False, -1]] # 17 P4 bottom-up
  
  - [-1, 1, Conv, [512, 3, 2]]
  - [[-1, 8], 1, Concat, [1]] # cat head P5
  - [-1, 2, C3k2Attn, [1024, True]] # 20 P5
  
  # BiFPN fusion: Learnable weighted bidirectional fusion
  # Input: [P3, P4, P5] → Output: Enhanced [P3, P4, P5]
  # Args: [c3, c4, c5, c_out] where c_out is output channel (typically same as P3)
  - [[14, 17, 20], 1, BiFPN, [256, 512, 1024, 256]] # 21 BiFPN fusion
  
  # Detect dengan BiFPN-enhanced features
  - [[14, 17, 20], 1, Detect, [nc]] # Detect(P3, P4, P5)




