# VVV YOLOv12-ASSN 🚀, AGPL-3.0 license
# YOLOv12 with ASSN (Attention-based Scale Sequence Network) in Neck
# ASSN uses Channel Attention, Spatial Attention, and E-ELAN for feature refinement
# For Usage examples see https://docs.ultralytics.com/tasks/detect

# Parameters
nc: 1 # number of classes
scales: # model compound scaling constants
  # [depth, width, max_channels]
  n: [0.50, 0.25, 1024]
  s: [0.50, 0.50, 1024]
  m: [0.50, 1.00, 512]
  l: [1.00, 1.00, 512]
  x: [1.00, 1.50, 512]


# YOLO12-turbo backbone
backbone:
  # [from, repeats, module, args]
  - [-1, 1, Conv,  [64, 3, 2]] # 0-P1/2
  - [-1, 1, Conv,  [128, 3, 2, 1, 2]] # 1-P2/4
  - [-1, 2, C3k2,  [256, False, 0.25]] # 2
  - [-1, 1, Conv,  [256, 3, 2, 1, 4]] # 3-P3/8
  - [-1, 2, C3k2,  [512, False, 0.25]] # 4
  - [-1, 1, Conv,  [512, 3, 2]] # 5-P4/16
  - [-1, 4, A2C2f, [512, True, 4]] # 6
  - [-1, 1, Conv,  [1024, 3, 2]] # 7-P5/32
  - [-1, 4, A2C2f, [1024, True, 1]] # 8

# YOLO12-turbo head with ASSN in Neck
head:
  # Top-down path: P5 → P4 → P3
  - [-1, 1, nn.Upsample, [None, 2, "nearest"]] # 9
  - [[-1, 6], 1, Concat, [1]] # 10 cat backbone P4
  - [-1, 2, A2C2f, [512, False, -1]] # 11 P4 processed

  - [-1, 1, nn.Upsample, [None, 2, "nearest"]] # 12
  - [[-1, 4], 1, Concat, [1]] # 13 cat backbone P3
  - [-1, 2, A2C2f, [256, False, -1]] # 14 P3A processed

  # ASSN: Attention-based Scale Sequence Network
  # Takes [P5, P4, P3A] and produces refined P3B
  - [[8, 11, 14], 2, ASSN, [1024, 512, 256, 256]] # 15 ASSN: P3B refined with attention

  # Bottom-up path: P3 → P4 → P5
  - [-1, 1, Conv, [256, 3, 2]] # 16
  - [[-1, 11], 1, Concat, [1]] # 17 cat head P4
  - [-1, 2, A2C2f, [512, False, -1]] # 18 P4 bottom-up

  - [-1, 1, Conv, [512, 3, 2]] # 19
  - [[-1, 8], 1, Concat, [1]] # 20 cat head P5
  - [-1, 2, C3k2, [1024, True]] # 21 P5 bottom-up

  # Final outputs for detection
  - [15, 1, Conv, [256, 3, 1]] # 22 P3 final
  - [18, 1, Conv, [512, 3, 1]] # 23 P4 final
  - [21, 1, Conv, [1024, 3, 1]] # 24 P5 final

  - [[22, 23, 24], 1, Detect, [nc]] # Detect(P3, P4, P5) dengan ASSN-enhanced features

