# YOLOv12-CIB2 🚀, AGPL-3.0 license
# YOLOv12 object detection model with P3-P5 outputs and Context Injection Block (CIB2)
# For Usage examples see https://docs.ultralytics.com/tasks/detect

# Parameters
nc: 1 # number of classes
scales: # model compound scaling constants, i.e. 'model=yolov12n-cib2.yaml' will call yolov12-cib2.yaml with scale 'n'
  # [depth, width, max_channels]
  n: [0.50, 0.25, 1024]
  s: [0.50, 0.50, 1024]
  m: [0.50, 1.00, 512]
  l: [1.00, 1.00, 512]
  x: [1.00, 1.50, 512]


# YOLO12-turbo backbone
backbone:
  # [from, repeats, module, args]
  - [-1, 1, Conv,  [64, 3, 2]] # 0-P1/2
  - [-1, 1, Conv,  [128, 3, 2, 1, 2]] # 1-P2/4
  - [-1, 2, C3k2,  [256, False, 0.25]] # 2
  - [-1, 1, Conv,  [256, 3, 2, 1, 4]] # 3-P3/8
  - [-1, 2, C3k2,  [512, False, 0.25]] # 4
  - [-1, 1, Conv,  [512, 3, 2]] # 5-P4/16
  - [-1, 4, A2C2f, [512, True, 4]] # 6
  - [-1, 1, Conv,  [1024, 3, 2]] # 7-P5/32
  - [-1, 4, A2C2f, [1024, True, 1]] # 8

# YOLO12-turbo head with CIB2 Block
head:
  - [-1, 1, nn.Upsample, [None, 2, "nearest"]] # 9
  - [[-1, 6], 1, Concat, [1]] # 10 cat backbone P4
  - [-1, 2, A2C2f, [512, False, -1]] # 11

  - [-1, 1, nn.Upsample, [None, 2, "nearest"]] # 12
  - [[-1, 4], 1, CIB2, [256, 512]] # 13 CIB2 Block: Context Injection (lateral connection P3→P2, takes [upsampled_p4, p3_backbone])
  - [-1, 2, A2C2f, [256, False, -1]] # 14

  - [-1, 1, Conv, [256, 3, 2]] # 15
  - [[-1, 11], 1, Concat, [1]] # 16 cat head P4
  - [-1, 2, A2C2f, [512, False, -1]] # 17

  - [-1, 1, Conv, [512, 3, 2]] # 18
  - [[-1, 8], 1, Concat, [1]] # 19 cat head P5
  - [-1, 2, C3k2, [1024, True]] # 20 (P5/32-large)

  - [[14, 17, 20], 1, Detect, [nc]] # Detect(P3, P4, P5)

