# YOLOv12-Turbo dengan Feature Fusion Ideas 🚀
# Berbagai opsi feature fusion untuk neck enhancement
# For Usage examples see https://docs.ultralytics.com/tasks/detect

# Parameters
nc: 1 # number of classes
scales: # model compound scaling constants
  # [depth, width, max_channels]
  n: [0.50, 0.25, 1024]
  s: [0.50, 0.50, 1024]
  m: [0.50, 1.00, 512]
  l: [1.00, 1.00, 512]
  x: [1.00, 1.50, 512]

# ============================================
# OPSI 1: Standard dengan MPSA di Neck
# ============================================
# YOLO12-turbo backbone
backbone:
  # [from, repeats, module, args]
  - [-1, 1, Conv,  [64, 3, 2]] # 0-P1/2
  - [-1, 1, Conv,  [128, 3, 2, 1, 2]] # 1-P2/4
  - [-1, 2, C3k2,  [256, False, 0.25]]
  - [-1, 1, Conv,  [256, 3, 2, 1, 4]] # 3-P3/8
  - [-1, 2, C3k2Attn,  [512, False, 0.25]]
  - [-1, 1, Conv,  [512, 3, 2]] # 5-P4/16
  - [-1, 2, A2C2f,  [512, True, 1]]
  - [-1, 1, Conv,  [1024, 3, 2]] # 7-P5/32
  - [-1, 2, A2C2f,  [1024, False, 1]]

# YOLO12-turbo head dengan MPSA-enhanced fusion
head:
  # Top-down path: P5 → P4 → P3
  - [-1, 1, nn.Upsample, [None, 2, "nearest"]]
  - [[-1, 6], 1, Concat, [1]] # cat backbone P4
  - [-1, 2, A2C2f, [512, False, -1]] # 11
  - [-1, 1, MPSA, [512]] # MPSA refinement setelah P4 fusion
  
  - [-1, 1, nn.Upsample, [None, 2, "nearest"]]
  - [[-1, 4], 1, Concat, [1]] # cat backbone P3
  - [-1, 2, A2C2f, [256, False, -1]] # 14
  - [-1, 1, MPSA, [256]] # MPSA refinement setelah P3 fusion (critical untuk small objects)
  
  # Bottom-up path: P3 → P4 → P5
  - [-1, 1, Conv, [256, 3, 2]]
  - [[-1, 11], 1, Concat, [1]] # cat head P4
  - [-1, 2, A2C2f, [512, False, -1]] # 17
  - [-1, 1, MPSA, [512]] # MPSA refinement setelah P4 bottom-up
  
  - [-1, 1, Conv, [512, 3, 2]]
  - [[-1, 8], 1, Concat, [1]] # cat head P5
  - [-1, 2, C3k2Attn, [1024, True]] # 20 (P5/32-large)
  
  - [[14, 17, 20], 1, Detect, [nc]] # Detect(P3, P4, P5)

# ============================================
# OPSI 2: Menggunakan AdaptiveFeatureFusion
# ============================================
# Uncomment untuk menggunakan AdaptiveFeatureFusion
# head:
#   - [-1, 1, nn.Upsample, [None, 2, "nearest"]]
#   - [[-1, 6], 1, AdaptiveFeatureFusion, [512, 512]] # Adaptive fusion P5+P4
#   - [-1, 2, A2C2f, [512, False, -1]]
#   
#   - [-1, 1, nn.Upsample, [None, 2, "nearest"]]
#   - [[-1, 4], 1, AdaptiveFeatureFusion, [256, 256]] # Adaptive fusion P4+P3
#   - [-1, 2, A2C2f, [256, False, -1]]
#   
#   - [-1, 1, Conv, [256, 3, 2]]
#   - [[-1, 11], 1, Concat, [1]]
#   - [-1, 2, A2C2f, [512, False, -1]]
#   
#   - [-1, 1, Conv, [512, 3, 2]]
#   - [[-1, 8], 1, Concat, [1]]
#   - [-1, 2, C3k2Attn, [1024, True]]
#   
#   - [[14, 17, 20], 1, Detect, [nc]]

# ============================================
# OPSI 3: Cross-Level Attention Fusion
# ============================================
# Uncomment untuk menggunakan CrossLevelAttention
# head:
#   - [-1, 1, nn.Upsample, [None, 2, "nearest"]]
#   - [[-1, 6], 1, Concat, [1]]
#   - [-1, 2, A2C2f, [512, False, -1]]
#   
#   - [-1, 1, nn.Upsample, [None, 2, "nearest"]]
#   - [[-1, 4], 1, Concat, [1]]
#   - [-1, 2, A2C2f, [256, False, -1]]
#   
#   - [-1, 1, Conv, [256, 3, 2]]
#   - [[-1, 11], 1, Concat, [1]]
#   - [-1, 2, A2C2f, [512, False, -1]]
#   
#   - [-1, 1, Conv, [512, 3, 2]]
#   - [[-1, 8], 1, Concat, [1]]
#   - [-1, 2, C3k2Attn, [1024, True]]
#   
#   # Cross-level attention sebelum detect
#   - [[14, 17, 20], 1, CrossLevelAttention, [256]] # 21: [P3, P4, P5] → enhanced [P3, P4, P5]
#   # Extract individual outputs dari CrossLevelAttention menggunakan Index module
#   - [21, 1, Index, [0]] # 22: P3 enhanced dari CrossLevelAttention
#   - [21, 1, Index, [1]] # 23: P4 enhanced dari CrossLevelAttention  
#   - [21, 1, Index, [2]] # 24: P5 enhanced dari CrossLevelAttention
#   # Detect dengan enhanced features dari CrossLevelAttention
#   - [[22, 23, 24], 1, Detect, [nc]] # Detect dengan CrossLevelAttention-enhanced features

# ============================================
# OPSI 4: BiFPN untuk Bidirectional Fusion
# ============================================
# Uncomment untuk menggunakan BiFPN
# head:
#   - [-1, 1, nn.Upsample, [None, 2, "nearest"]]
#   - [[-1, 6], 1, Concat, [1]]
#   - [-1, 2, A2C2f, [512, False, -1]] # P4
#   
#   - [-1, 1, nn.Upsample, [None, 2, "nearest"]]
#   - [[-1, 4], 1, Concat, [1]]
#   - [-1, 2, A2C2f, [256, False, -1]] # P3
#   
#   - [-1, 1, Conv, [256, 3, 2]]
#   - [[-1, 11], 1, Concat, [1]]
#   - [-1, 2, A2C2f, [512, False, -1]] # P4 bottom-up
#   
#   - [-1, 1, Conv, [512, 3, 2]]
#   - [[-1, 8], 1, Concat, [1]]
#   - [-1, 2, C3k2Attn, [1024, True]] # P5
#   
#   # BiFPN fusion: [P3, P4, P5] → enhanced [P3, P4, P5]
#   - [[14, 17, 20], 1, BiFPN, [256, 512, 1024, 256]] # [c3, c4, c5, c_out]
#   - [[14, 17, 20], 1, Detect, [nc]]




